Exercises34752_week1_final/1.3/notebooks/filename.pth (torch, 1631 bytes, 3 tensors)

hidden.weight f4 [4, 2]
00000000: 1eda 9d40 3712 9e40 dd42 c5c0 dd96 c4c0
00000010: 9602 c43f 1ec5 d63f fc3c 27c0 f515 22c0
4.9328756 4.9397235 -6.164412 -6.143416 1.5313289 1.6778905 -2.6130972 -2.5325902

hidden.bias f4 [4]
00000000: 2d38 5bbf 6455 1740 baf2 80bf 3dd3 7240
-0.8563259 2.3645868 -1.0074074 3.794143

predict.weight f4 [1, 4]
00000000: de6e 283f 42ac b9bf e188 3cbf a8ec e13f
0.6579417 -1.4505694 -0.7364636 1.7650347
